LottoCrawling/lotto_model.pth (torch, 384240 bytes, 6 tensors)

lstm.weight_ih_l0 f4 [512, 45]
000000 ad b3 1e 40 9b 2f eb be 1e 4f ba 3f df 7a 19 bf
       2.4797165 -0.45934758 1.4555395 -0.5995311
000010 0e 96 d1 be fe c6 25 bf a0 bd f4 3f d5 21 2a 3f
       -0.40934795 -0.64756763 1.9120369 0.66457874
000020 1f 28 3a 3c 42 71 28 3f ec ba be bf 86 c9 b3 bf
       0.011362105 0.6579782 -1.4900794 -1.4045875
000030 53 34 87 40 2c 7a 0b be 64 80 aa 3e ae e8 8c bf
       4.225137 -0.13620824 0.3330108 -1.1008508
000040 70 28 33 40 3c 38 c3 bf c3 44 c2 be e9 49 81 3d
       2.799343 -1.5251536 -0.37943086 0.06312925
000050 bd 08 40 bf 2a 37 1d 40 53 95 84 bf 04 41 c9 3e
       -0.75013334 2.456492 -1.035807 0.39307415
000060 18 ae 08 40 55 7c 94 bf 49 c1 6b bf a1 a7 93 bf
       2.1356258 -1.1600443 -0.92091805 -1.1535531
000070 7e 80 85 3e 3c 7e c6 bf 07 c0 c0 3f e5 99 d0 be
       0.26074594 -1.5507274 1.5058602 -0.40742412
000080 fb 24 14 bf 5e 44 48 40 cd ed f6 bf 02 93 6a bf
       -0.5786893 3.1291728 -1.9291321 -0.91630566
000090 e9 88 f8 bf 44 f5 1c c0 9d 36 f9 be 85 68 a4 be
       -1.9416782 -2.4524698 -0.4867448 -0.32110992
0000a0 ab c3 3f 3f 23 08 76 40 f4 45 3c 3f b4 b0 32 3f
       0.7490794 3.8442466 0.7354424 0.6980088
0000b0 01 85 a8 3f 7a f1 66 3f b9 92 5b 3f 66 c8 93 3f
       1.316559 0.90212214 0.85770756 1.1545532
0000c0 35 94 81 3e 1d 6e 96 bf 8f f2 87 3f 5e 08 32 40
       0.25308385 -1.1752354 1.0620898 2.7817607
0000d0 38 14 4e 3f 94 00 f3 bf de b5 a5 3f 86 83 96 3f
       0.804996 -1.8984551 1.2946126 1.1758888
0000e0 a3 d9 22 bf 4b d8 a8 3e 71 c8 4a 3e 5e 6a 68 bf
       -0.6361334 0.32977518 0.19803025 -0.90787303
0000f0 81 50 97 3e c0 9a f0 3f fd a8 a9 3f 9e 7f 2d 3c
       0.29553607 1.8797226 1.3254696 0.010589508
000100 ff e4 ba 40 e5 ae 04 bf 60 c9 bf 3d f9 05 85 3f
       5.8404536 -0.5182937 0.09364581 1.0392448
000110 10 df bc be 62 9c 82 be 3f 8b 84 3e f0 19 91 be
       -0.36888933 -0.25509936 0.25887486 -0.283401
000120 41 38 eb bf 0f 51 82 be 4e 59 36 bf ed d5 51 bf
       -1.8376542 -0.25452468 -0.7123002 -0.8196705
000130 de 92 78 3f 04 9d 2a c0 34 a4 f0 bf 35 b1 7b bf
       0.970991 -2.6658335 -1.8800111 -0.9831727
000140 71 16 cd 3e 96 a3 91 3f 0d 9e 0d c0 40 77 7c 3e
       0.40056184 1.1378047 -2.2127717 0.24654865
000150 5d 29 f4 3f 69 f4 f7 3f 03 3c 47 bf 8b ee 7f bf
       1.9075123 1.9371463 -0.77825946 -0.9997336
000160 53 65 ae be 7e 8c 6f 3f 08 ca 9b bd 79 2e df bf
       -0.3406168 0.9357375 -0.07606894 -1.7436057
000170 73 23 37 3f 92 d3 86 3f dd 42 2c 3f 49 77 0e 40
       0.71538466 1.0533316 0.67289525 2.2260306
000180 25 e3 d1 be 3d a7 a1 be 97 99 31 3e 11 50 fe 3e
       -0.4099361 -0.31572905 0.17343746 0.4967046
000190 d5 c2 82 bf b0 ba 21 3f 9a c2 c8 3f 42 77 da 3f
       -1.0215708 0.6317549 1.5684388 1.7067645
0001a0 66 c9 01 40 58 56 04 40 a4 f5 c4 3f 1f 50 20 3f
       2.0279174 2.06777 1.5387464 0.62622255
0001b0 e3 95 72 bf 0e d0 40 bf 33 2d 01 c0 6a 0a d5 bf
       -0.9475996 -0.75317466 -2.0183837 -1.6643803
0001c0 14 53 88 3e 98 57 47 3f e2 9a 2e bf 2c ab f9 bf
       0.26625884 0.7786803 -0.6820508 -1.9505363
0001d0 60 ec 0a c0 7d f7 a0 be 02 81 00 40 8c 2b 44 3f
       -2.1706772 -0.3143882 2.007874 0.7662895
0001e0 ce 5c f0 3f 6c a9 e0 3f 61 aa 85 bf d3 16 91 3e
       1.8778322 1.7551703 -1.044262 0.28337726
0001f0 6b 29 f4 bd 7b cc d0 bf 34 f4 7c 3f eb 78 d5 bf
       -0.11921962 -1.6312402 0.98810124 -1.6677526
000200 24 f0 47 3e c9 3e b3 bf f6 95 85 be 17 54 9f 3e
       0.195252 -1.4003536 -0.26090974 0.31118843
000210 55 50 1a 3f 90 20 04 40 65 2f 08 40 20 11 3a c0
       0.60278827 2.0644875 2.1278927 -2.9072952
000220 a3 38 06 bf 2a 4f 86 3d 26 2e e9 bd f4 cf 1f 3f
       -0.5243017 0.06558068 -0.11385755 0.62426686
000230 ac 92 31 40 1f b3 e7 3f e4 76 02 40 84 af da 3e
       2.7745771 1.8101538 2.0385065 0.42712033
000240 b2 39 56 3f 1c 82 fe bf 4a ef 73 3f 05 64 a0 3f
       0.83681786 -1.9883456 0.95287 1.2530524
000250 2a 39 1e 40 53 b2 dc 3f 5f 67 b7 be c6 54 0e 3f
       2.472239 1.724192 -0.35821053 0.55598104
000260 6e 03 84 bf 00 97 91 3e 39 11 f2 bf 7a 75 b8 be
       -1.0313547 0.28435516 -1.8911506 -0.36027128
000270 cc a7 bf be 25 2f a0 40 e9 b5 c5 3e cb 89 77 bd
       -0.37432706 5.005755 0.3861535 -0.060434144
000280 24 60 a6 bf 97 19 e5 3e 7f b4 0b 40 5f 84 ec be
       -1.299809 0.44746086 2.1828916 -0.4619474
000290 93 14 c1 3f 81 b2 92 3f 1d a4 98 3f c7 93 c3 bf
       1.5084404 1.1460725 1.1925083 -1.5279473
0002a0 4e 8b 0e bf 44 8b 44 be b3 91 bb 3d 69 d3 ad bf
       -0.5568131 -0.1919375 0.09158649 -1.3580142
0002b0 55 de e3 3f bf d8 b0 be 45 2e 5a bf 3e 0e bc 3f
       1.7802225 -0.34540364 -0.8522685 1.4691846
0002c0 0d ef 8a be 63 c5 14 3e 01 be 92 bf ad 73 78 3e
       -0.27135506 0.14528422 -1.1464235 0.24262877
0002d0 75 8e bc 3f 8e 3f 0a c0 d2 73 53 40 1e 5d db 3f
       1.4730974 -2.160129 3.303944 1.7137792
0002e0 cc 1f 07 bf dc e1 31 be af 84 e2 3d 6f c0 65 bf
       -0.52782893 -0.17371315 0.11060464 -0.89746755
0002f0 3e 2b 64 bf 79 52 36 40 53 55 88 be e9 82 49 be
       -0.8912848 2.8487837 -0.26627597 -0.19678845
000300 7f 6e 4d 40 9f b1 33 bf 61 cc 1c bf ab 79 aa 3f
       3.2098691 -0.70192903 -0.6124936 1.331838
000310 40 be ad be f4 46 fb 3f 23 ca 67 be 99 be fb 3c
       -0.33934212 1.9631028 -0.22635703 0.030730532
000320 fd ef 54 bf 4f 61 a8 bf bf 92 ca 3d 76 c5 6f bf
       -0.83178693 -1.3154696 0.09891271 -0.93660676
000330 0c 45 4b bf 3a 8a f7 3f 89 06 c9 3f 9a ef 50 bf
       -0.7940223 1.9339058 1.5705119 -0.816156
000340 41 e4 6d be 67 f4 65 3c de 77 42 be 83 0c 4e 40
       -0.23231603 0.014035321 -0.18991038 3.2195137
000350 5a fd e1 3e a2 75 e7 3f e6 65 97 40 70 b7 d0 bd
       0.44138604 1.8082774 4.731189 -0.10191238
000360 f7 7d 8d be 42 1e 2f 3f 8f 9f 2d c0 62 e6 a5 3e
       -0.27635166 0.68405545 -2.7128637 0.3240233
000370 30 d7 30 40 aa 3a d2 3e ab 30 ea be 0d 7f 6a 3e
       2.763134 0.41060382 -0.45740256 0.22900029
000380 9d 14 5d 3f 5b 42 f7 bf a5 c0 bf 3f 12 26 b4 3f
       0.8635958 -1.9317125 1.4980665 1.4074118
000390 1e dd c4 3f 9d b0 9d be 6d 46 cc be 9b e3 c9 3e
       1.537998 -0.30798808 -0.3989748 0.39431462
0003a0 37 38 15 c0 43 1a 03 c0 e6 0d 87 3f 5a b1 82 3e
       -2.331556 -2.048478 1.0551116 0.25525934
0003b0 85 04 aa 3e a3 9b a0 3f 4e 9c bb 3f c7 af de be
       0.33206573 1.2547497 1.4657075 -0.43493482
0003c0 75 9e 5a 3f 9e f2 09 bf 7e f5 4c 3e 33 41 99 be
       0.85398036 -0.5388583 0.20015523 -0.29932556
0003d0 fc a5 24 3f 58 40 92 bf 0d 31 2f bf 8a 58 c9 3f
       0.6431577 -1.1425886 -0.6843422 1.5730145
0003e0 a9 12 02 40 b6 51 e9 3e b7 d8 b9 3d 67 89 03 3f
       2.032389 0.45570153 0.09074538 0.51381534
0003f0 35 2d 14 40 77 95 20 3f 7b 72 47 bf 6d f0 93 bf
       2.3152592 0.62728065 -0.7790906 -1.1557747

lstm.weight_hh_l0 f4 [512, 128]
000000 18 7f 12 bc ac dc a1 3c da 51 3a 3d 7a 14 59 3d
       -0.008941434 0.019758545 0.045488216 0.052998044
000010 41 07 9e 3d e6 18 97 bd 03 b3 a1 3d 15 ad b2 3d
       0.07716227 -0.07377796 0.07895472 0.08724419
000020 7e fd 10 bd 21 94 aa bd 98 c6 3a bc fe 70 42 3d
       -0.035398 -0.083290346 -0.0113998875 0.04747104
000030 40 dd 81 ba f0 92 84 bb 11 00 9d 3d fa d4 91 bd
       -0.0009907857 -0.0040458366 0.07666028 -0.071207
000040 80 e4 8f bd d8 a0 91 bd 7a cb 67 3d d5 ea a9 bd
       -0.07026005 -0.07110757 0.056590535 -0.08296744
000050 b5 db 98 3d 13 03 aa bd 80 9d 11 3a 85 aa 9a bd
       0.07463781 -0.083013676 0.00055547804 -0.07552055
000060 98 63 48 3c ee b5 83 bd ab 64 84 3d 87 10 86 bd
       0.012230776 -0.06431185 0.064645134 -0.06546121
000070 ce 59 7f 3d fb fd 81 3d 1c 65 b1 bc 73 2b ad 3d
       0.062341504 0.06347271 -0.021654658 0.08455553
000080 82 c5 35 3d 00 21 1f 3a 10 2e 78 bd 0a 57 26 3d
       0.04437781 0.0006070286 -0.060590804 0.04061035
000090 da 4c 18 3d e9 f9 84 bd f0 63 88 bc 3f 35 85 bd
       0.037182666 -0.06492979 -0.016649216 -0.065042965
0000a0 e0 13 a3 3c 2d 81 8d 3d c8 a8 09 3c 80 25 56 ba
       0.019906938 0.06909404 0.008402057 -0.000816904
0000b0 48 f4 d3 bc e0 bc 09 bd 18 3f bd bc 3e cb 02 3d
       -0.025873318 -0.03362739 -0.023101375 0.031932108
0000c0 cc 5f 91 3c 56 26 26 3d 05 6c a1 3d 95 a7 59 bd
       0.017745875 0.040563904 0.07881931 -0.053138334
0000d0 6d 9e 86 3d 56 25 1b bd 16 1c 77 3d c0 0d ba 3a
       0.06573186 -0.037877403 0.06032952 0.0014194772
0000e0 fa ff 30 3d d6 e5 2e bd dc 10 88 bd 2f bf 93 3d
       0.04321287 -0.042699657 -0.06643841 0.072142
0000f0 88 62 7a bd e6 23 2d 3d 9c c0 9f bc e0 57 55 3b
       -0.061129123 0.042270564 -0.019501023 0.0032553598
000100 76 3c 78 bd 80 9a 8b bb 39 33 a4 3d d9 9f 8b 3d
       -0.060604535 -0.004260361 0.080175824 0.06817598
000110 08 53 80 bc 20 64 af bb c6 76 20 3d 5b e6 b2 bd
       -0.015664592 -0.005352512 0.03917577 -0.08735343
000120 67 c0 65 bd f4 75 57 bd 43 6e 83 3d 4c c4 d1 3c
       -0.056091692 -0.052602723 0.06417515 0.025606297
000130 72 73 42 bd b2 24 ae bd 18 ed 2f 3c 2f fb 99 3d
       -0.04747338 -0.08503093 0.01073768 0.075186126
000140 2e 6b 46 3d e2 aa 7e 3d 66 28 7b 3d 4f 54 ab 3d
       0.04844206 0.062174685 0.061317824 0.0836569
000150 7b 10 88 3d 74 6b ec 3c 73 9f 9f 3d 21 2d 87 3d
       0.066437684 0.028859831 0.077940844 0.066004045
000160 93 de 8b 3d 87 e4 4c bd ec 82 91 bc 75 34 b4 3d
       0.06829562 -0.05002263 -0.017762624 0.08799068
000170 b4 39 70 bd e1 3c 80 bd c7 18 92 bd 80 e6 b8 bc
       -0.05864878 -0.06261612 -0.07133632 -0.022570848
000180 b6 c1 b1 bd e8 24 93 3c 5c a3 ae bc 03 44 16 bd
       -0.086795256 0.017961934 -0.02131813 -0.036685955
000190 69 02 84 3d ba 92 6a 3d 80 57 a1 bc 44 df 97 3c
       0.06445772 0.057268836 -0.019695044 0.018539079
0001a0 70 66 12 bd ec 1b 99 bd 10 9f 83 3b c4 d5 86 3c
       -0.035742223 -0.07476029 0.0040167645 0.016459353
0001b0 c0 31 4f 3c ae d0 6e 3d 6e cd 6b bd ad d4 98 3d
       0.012646139 0.05830448 -0.05756896 0.0746244
0001c0 ea ed 46 3d ea cd 1c 3d 50 70 83 bb d8 71 ca bc
       0.048566736 0.038282312 -0.0040111914 -0.024712488
0001d0 80 b7 f9 bb 7a b1 4c 3d 2f e5 9f bd e8 d2 0d bd
       -0.007620752 0.049973942 -0.07807385 -0.034624964
0001e0 a9 c9 83 3d 22 0d 0c 3d 20 c6 4b 3c b8 3d b0 bc
       0.06434948 0.034192212 0.012437373 -0.021513805
0001f0 9e f7 95 bd 49 0b 8d 3d 60 16 6b bb 24 04 0e 3d
       -0.0732262 0.06886918 -0.003587149 0.034671918
000200 3f 1c b0 3d 54 8e e6 3c f1 07 55 bd a0 c7 e3 3b
       0.085991375 0.02814404 -0.052009527 0.0069512874
000210 8d 10 65 bd ba 03 4d 3d 84 e5 d0 3c 8c 0d c9 bc
       -0.055923987 0.050052382 0.025500067 -0.024542592
000220 8b 72 6b bd c0 2b b7 3a 92 d6 8d bd 00 e3 d7 b9
       -0.057482284 0.001397483 -0.06925692 -0.00041177124
000230 4a ac a2 bd 33 ac 89 3d 8d 9a 84 3d 28 d9 5c 3c
       -0.07943018 0.067222975 0.06474791 0.013479508
000240 20 91 f6 3c 9c 0b 85 bc f8 ab 89 3c 8a c6 8e bd
       0.030098498 -0.016240887 0.016805634 -0.06971462
000250 31 21 98 3d fa a6 41 3d 00 11 08 3b 38 98 ab bd
       0.07428206 0.047278382 0.0020762086 -0.08378643
000260 08 df c6 bc 0a 21 4d 3d ba 9a 25 3d 50 ac 8a 3c
       -0.024276271 0.050080337 0.040430762 0.016927868
000270 00 ea 95 3c 5c 5a e2 bc 80 cc 65 bd 80 5d 84 3a
       0.018300056 -0.027630977 -0.05610323 0.0010098666
000280 17 04 98 bd 00 1f 4b bc a0 7b 1a bb b0 c5 31 3c
       -0.07422655 -0.012397528 -0.0023572221 0.010850355
000290 6e de a4 bd e0 ad 10 3b 42 05 3e 3d 2c 34 93 bc
       -0.080502376 0.0022076294 0.046391733 -0.017969213
0002a0 4f b0 87 3d 80 d4 f5 bb 88 99 44 bc 5c d8 4d bd
       0.06625425 -0.0075021386 -0.011999495 -0.050255165
0002b0 39 f1 82 3d b8 86 94 bc 5a b3 73 3d 86 5e 50 bd
       0.06393666 -0.018130645 0.059497215 -0.050871395
0002c0 bf 04 b3 bd ff fc 90 bd 90 e7 0c 3c e5 62 9f 3d
       -0.087411396 -0.07079505 0.008600131 0.077825345
0002d0 e0 e2 47 bb 8c ff ed 3c 52 1e 5b 3d cf 49 34 bd
       -0.0030500218 0.029052518 0.053495713 -0.0440157
0002e0 85 c7 62 bd 00 fe 9e b9 a0 fd 15 3b 14 05 9d bc
       -0.055366058 -0.00030325353 0.0022886768 -0.01916746
0002f0 8a 28 71 bd eb ff a1 bd 44 0b e5 3c 26 66 75 3d
       -0.05887655 -0.079101406 0.027959473 0.05991187
000300 2a 4c 54 3d 0f 42 a5 3d 35 c8 a5 3d 18 e5 d4 3c
       0.05183045 0.0806924 0.08094827 0.025988147
000310 56 08 49 3d 30 56 8a bc 70 51 f2 3c a6 7b 45 bd
       0.049080215 -0.0168868 0.029579848 -0.048213623
000320 34 50 2a bd 24 cf a4 3c 36 c3 5a 3d 37 c9 96 3d
       -0.041580394 0.020118304 0.053408824 0.073625974
000330 e0 7c 7c bd 62 ae 0f 3d a6 7e 49 3d e8 16 92 bd
       -0.061642528 0.035078414 0.049193047 -0.07133275
000340 a0 6f 1e 3b ba f5 51 bd 52 f7 86 bd ad 25 5f bd
       0.002417542 -0.051259734 -0.06590141 -0.05447929
000350 3f e6 a8 bd fa 11 75 3d 16 8a 65 3d 00 7e 08 bd
       -0.08247041 0.059831597 0.056039892 -0.033323288
000360 20 12 5c 3c 98 93 08 3d e3 63 b4 3d ba b7 38 3d
       0.013432056 0.03334388 0.088081144 0.04509709
000370 7c 16 50 bd 9e a7 3e 3d 3c d5 88 bd c4 c5 c3 3c
       -0.050802693 0.04654657 -0.06681296 0.023898013
000380 06 d9 69 3d 78 8f 90 bc 48 3e 01 3c 2c 88 ab bd
       0.057091735 -0.017646536 0.007888384 -0.08375582
000390 be 67 37 3d 00 14 23 39 38 c3 1f 3c ba 5b 6f 3d
       0.04477667 0.00015552342 0.009751134 0.058437087
0003a0 a6 78 09 bd 24 a3 b0 bc 8f 44 ab bd e7 b9 09 bd
       -0.033562325 -0.021562167 -0.08362686 -0.033624556
0003b0 9a ae 43 bd 4c 69 b7 3c 60 e2 dc bb 86 5d 14 bd
       -0.047773935 0.022389077 -0.006740853 -0.036222003
0003c0 10 71 c1 3b 07 a3 12 bd 40 2e 92 bc ee e9 66 3d
       0.0059033707 -0.035800006 -0.01784432 0.056375436
0003d0 60 f7 d7 3b 28 7b b1 bd 5a e2 4f 3d 50 5f 85 bd
       0.0065907687 -0.08666068 0.050752975 -0.0651232
0003e0 64 f1 c9 bc 90 39 93 bd c0 9f 19 3b 12 7c 49 bd
       -0.024651237 -0.071887136 0.0023441166 -0.04919059
0003f0 e7 eb 92 3d f7 44 61 bd a2 9e 4a 3d e0 dc b5 bc
       0.07173901 -0.05499741 0.04946769 -0.022200048

lstm.bias_ih_l0 f4 [512]
000000 64 5b 47 3e e9 20 0b 3e 78 75 94 3e 2e 98 a8 3d
       0.19468457 0.13586773 0.28995872 0.08232151
000010 b4 da a8 3e 33 57 40 3e ab 4b 8a 3e f7 af 09 3e
       0.32979357 0.18783264 0.27010855 0.13446032
000020 4d 67 99 3e a0 35 ef 3e 56 34 0e 3e ba ff 7a 3e
       0.29961625 0.467206 0.13887152 0.24511614
000030 7a a1 53 3e 5a 07 8a 3e 31 cb 42 3e 47 f2 86 3e
       0.20667067 0.26958734 0.19022824 0.26356718
000040 96 ec fd 3d f8 1c ca 3d e5 fc 87 3d fd 60 82 3e
       0.12398641 0.098688066 0.06640033 0.2546462
000050 11 c4 a6 3d 90 9a f6 3d a6 63 68 3e e7 53 5b 3e
       0.081428654 0.12041199 0.22694263 0.21418725
000060 55 0f ea 3d 12 1a 0d 3e 87 7d 0a 3d 07 20 6a 3e
       0.114287056 0.13779476 0.03381112 0.2286378
000070 99 32 11 3e cc f5 8a 3e 6c 9d a1 3e 9b 62 e1 3e
       0.14179458 0.27140653 0.31565416 0.44020543
000080 9e 00 2c 3e 22 1e bb 3e ab 1b b4 3e e3 be 9c 3e
       0.1679711 0.36546427 0.3517736 0.30614385
000090 f4 cc 1c 3e a6 35 af 3e fb 91 2b 3d a7 2e 10 3e
       0.15312558 0.34220618 0.041887265 0.14080296
0000a0 84 69 63 3e 9e ec 90 3e f8 74 aa 3e f2 99 72 3e
       0.2220822 0.28305525 0.33292365 0.23691538
0000b0 29 c9 8b 3d 6b 0f ef 3d f3 60 ad 3e b3 87 b9 3e
       0.06825478 0.116728626 0.3386303 0.36236343
0000c0 4c 24 e1 3d 16 83 e5 3d 6e e7 8c 3d e0 34 0b 3e
       0.10993251 0.11206643 0.06880079 0.13594389
0000d0 cc 5c f8 3d 52 03 a7 3e af 0c c5 3e a3 a7 98 3e
       0.121270746 0.3261972 0.3848624 0.29815397
0000e0 e2 76 48 3e ae 73 47 3e d5 be c8 3d 57 8f 3d 3e
       0.195766 0.19477722 0.09802023 0.18511711
0000f0 12 be 5f 3e 5c 1d 7a 3e b1 b2 df 3e 39 37 64 3e
       0.2184985 0.24425262 0.43691018 0.22286691
000100 bd 1f 0d 3e 6a 57 94 3e 7c d4 9f 3e 6d e5 3f bd
       0.13781638 0.28972942 0.312168 -0.046849657
000110 90 52 82 3d 72 7b 4c 3e 8d 0f 6c 3d ba b3 9f 3e
       0.06363404 0.19968966 0.057632018 0.31191808
000120 0e 9f 14 3e f1 d8 cf 3e 2e d2 a9 3e 3d 88 6d 3e
       0.145138 0.405952 0.33168167 0.23196502
000130 a4 df 81 3d 9b 43 6e 3e 0a b4 25 3e 33 ae 91 3e
       0.06341484 0.23267977 0.1618196 0.28453216
000140 b5 46 3f 3e 38 58 91 3e 41 5c 7c 3e 6f fe 64 3e
       0.18679316 0.28387618 0.24644567 0.22362684
000150 18 bb 83 3e 15 f4 83 3e 23 38 36 3e 96 3b 33 3e
       0.2572868 0.25772157 0.17794852 0.17503199
000160 1a f4 85 3e 23 c9 ed 3d 81 7e c6 3e 1e 33 86 3e
       0.26162797 0.116106294 0.3876839 0.26210874
000170 c5 c4 78 3e 71 a8 f1 3d 20 b9 25 3e 34 78 33 3e
       0.24293812 0.11799706 0.16183901 0.17526323
000180 6d a4 b8 3e ef 7c 87 3e ff 1f a7 3e 34 06 69 3e
       0.36062947 0.26462504 0.326416 0.22756273
000190 3e 33 fe 3d a6 db 87 3e 4b 12 03 3e 4c 16 65 ba
       0.124121174 0.26534766 0.12799947 -0.0008738979
0001a0 33 f4 82 3e 11 75 89 3e 33 62 48 3d d8 63 b2 3e
       0.25576934 0.26847127 0.048921775 0.348418
0001b0 b1 7d 9c 3e fc 28 2f 3d 83 27 f9 bb c2 a4 67 3e
       0.30564645 0.042763695 -0.007603587 0.22621444
0001c0 16 ae a1 3e e0 ab 5f 3e c3 9f 54 3c 74 95 83 3e
       0.3157813 0.21842909 0.012977543 0.2569996
0001d0 7f 25 8a 3e f0 d5 82 3e a2 bc 41 3e 4e 3e e9 3e
       0.26981732 0.25553846 0.18919614 0.45555347
0001e0 9b 8b ba bc d5 82 3e 3e f0 98 89 3e 14 19 4d 3e
       -0.022771647 0.18604596 0.26874495 0.20029098
0001f0 42 4a f4 3c 77 a0 70 3e 8c 0e 15 3e d6 d6 0e 3b
       0.029820565 0.23498712 0.1455633 0.0021795533
000200 28 b5 98 bc 6a 94 13 3d b0 cf 31 bd 70 5a 2e 3c
       -0.01864107 0.03603021 -0.043410957 0.010641679
000210 54 b6 b5 3c 7a 59 76 3d 47 8c 97 3d ea 49 2f bd
       0.022181667 0.060143925 0.07399803 -0.0427951
000220 96 d0 07 3d 34 66 bc bc c6 df 99 bd 50 45 11 3c
       0.033157907 -0.022997953 -0.075133845 0.008866623
000230 d7 6c 89 3d 58 24 85 bd e0 b7 83 bb 0d 6b 78 bd
       0.06710213 -0.06501073 -0.0040197223 -0.060648967
000240 50 1b 8a 3b b6 1c 81 bd 5e ad 5d 3d 03 e1 7f bd
       0.0042146817 -0.06304304 0.054120414 -0.062470447
000250 d8 bd 6c bd 9d e9 9b bd d9 79 94 3d 4e 1d 68 3d
       -0.057798237 -0.076129176 0.07249803 0.056668572
000260 d9 9d af bd 7c 32 96 bd de 40 ff bc 83 20 8f 3d
       -0.08575029 -0.07333848 -0.03115886 0.06988623
000270 8f 09 a4 3d 10 fc d7 3c b0 fa 82 bc 72 01 7e 3d
       0.08009636 0.02636531 -0.015988678 0.062013097
000280 96 ed 28 3d 9c f3 01 3d 0b eb a1 3d a2 9a 86 bd
       0.041242205 0.031726465 0.07906159 -0.065724626
000290 aa 42 65 3d 0e a2 4c 3d 95 b2 94 3d 01 72 a9 3d
       0.05597178 0.049959235 0.07260624 0.08273698
0002a0 70 86 c2 3c f4 24 03 bd 93 f6 2c bd e6 98 31 3d
       0.023745745 -0.032017663 -0.04222734 0.043358706
0002b0 f1 c1 8b 3d b0 be da 3b 7c d7 ed bc a0 43 6d bc
       0.06824101 0.0066755638 -0.029033415 -0.014481455
0002c0 e0 6e 01 bb 80 c5 10 3d d4 37 da 3c 12 5c 33 3d
       -0.0019749925 0.0353446 0.026637949 0.043788977
0002d0 2c ef b7 3c d1 a9 86 3d 80 c3 2f bc c2 b1 1f 3d
       0.022452913 0.06575359 -0.010727763 0.038987882
0002e0 ea bb 6e bd 38 9f a1 bc 25 54 93 3d 64 d1 b0 bd
       -0.058284678 -0.019729242 0.07193784 -0.08633688
0002f0 ed 60 b1 bd c9 e1 3c bd bd a5 88 3d 76 00 52 3d
       -0.08661065 -0.046113763 0.06672237 0.05126997
000300 24 5b b2 3c 51 26 5d bd 84 87 0c bd 00 9c 62 b9
       0.021771975 -0.05399162 -0.034308925 -0.00021611154
000310 2f b2 aa 3d 9a 0f 55 3d 60 f5 c5 3c b0 65 cf 3c
       0.08334767 0.052016832 0.024164855 0.025317043
000320 90 74 8c bc ed 5b 99 3d c4 3e ea 3c 6c bd 64 bd
       -0.017145425 0.074882366 0.028594382 -0.05584471
000330 bb 62 76 bd 20 9f a4 3b 0e 08 3d 3d 30 66 81 3c
       -0.06015275 0.005023852 0.04615026 0.015795797
000340 34 d4 8e 3c 28 49 67 3c b8 f0 75 bd c6 61 66 3d
       0.01743517 0.014116563 -0.06004402 0.056245588
000350 64 9a 82 bd 36 2b 33 3d 40 f7 e1 ba c8 bb 93 bd
       -0.06377104 0.04374238 -0.0017239824 -0.07213551
000360 df 81 23 bd 16 33 1e bd 5a 57 16 3d e0 a5 ed bb
       -0.039918777 -0.038622938 0.0367044 -0.00725244
000370 ca 07 e9 bc 08 37 67 3c a4 45 72 bd 3e 4c 1c 3d
       -0.028446097 0.014112242 -0.059148446 0.038158648
000380 78 34 c9 bc f8 37 a4 3c 73 af ac 3d 1c 56 0b 3d
       -0.024561152 0.02004622 0.08431902 0.034017667
000390 de 02 50 3d 5c 31 d7 bc 00 b6 40 39 e8 eb 71 3c
       0.050783984 -0.026268654 0.00018378347 0.014765717
0003a0 6a 21 5e 3d 7d 40 9f 3d 71 57 a4 3d a5 e3 92 3d
       0.054231085 0.07775972 0.080244906 0.07172326
0003b0 fa 96 48 3d a0 3c 1d 3c 8c 7f b0 bd f7 1c 27 bd
       0.048972107 0.009596974 -0.08618078 -0.040799107
0003c0 e2 20 54 bd 38 b1 b5 3c a8 0e 46 3c 2c 24 be bc
       -0.051789172 0.022179231 0.012088455 -0.023210607
0003d0 8d ca 88 bd e8 91 44 bd 50 de 7c bc f2 d3 18 3d
       -0.066792585 -0.04799071 -0.015433863 0.0373115
0003e0 8e 73 58 3d 7c 00 86 bc 00 6f 86 b9 25 cf 84 3d
       0.052844577 -0.016357653 -0.00025641173 0.06484822
0003f0 00 e1 89 3b a9 d4 98 3d 1d ca ac bd 7c 1e 9a bc
       0.0042077303 0.07462437 -0.084369875 -0.018813364

lstm.bias_hh_l0 f4 [512]
000000 f5 07 e9 3d 6d 1a d1 3d 6a 1d 11 3e 49 a2 3d 3e
       0.11378471 0.102101184 0.14171377 0.18518938
000010 a0 32 86 3e 75 8a 32 3e 1b a1 1a 3e c7 5b 01 3e
       0.262105 0.1743563 0.1510052 0.12632667
000020 d3 b9 b3 3e 0c 87 b9 3e dd 71 7c 3e b8 36 75 3e
       0.3510271 0.36235845 0.2465281 0.23946655
000030 c6 7f fd 3d 0a 95 52 3e 3b 6d 56 3e 2a 68 00 3e
       0.123778865 0.20564666 0.20940106 0.12539735
000040 eb fa 34 3d 87 00 02 3e 29 29 b3 3d ad 33 f3 3d
       0.044184607 0.12695514 0.08748085 0.11875091
000050 89 1e 92 3d 8e 07 74 3e 85 af 5e 3e 68 cc 24 3e
       0.0713473 0.23831007 0.21746643 0.160936
000060 61 b7 d4 3d 32 2e 46 3e 71 0a 0e 3d ed fb 20 3e
       0.10386539 0.1935356 0.034677926 0.15721102
000070 01 5b 67 3e e1 83 81 3e b2 f4 b3 3e 06 88 0b 3f
       0.22593309 0.25295928 0.35147625 0.5450443
000080 80 28 53 3e c8 f2 bb 3e 41 52 c6 3e 4e 36 7f 3e
       0.20620918 0.36708665 0.3873463 0.2492306
000090 a0 dc 0a bc 58 91 95 3e b7 ce c1 3d ff b6 5e 3e
       -0.008475453 0.2921245 0.09463256 0.21749495
0000a0 35 42 a9 3e 3c 18 a5 3e c0 e1 6a 3e 73 fb 83 3e
       0.33058324 0.32245052 0.2293768 0.25777778
0000b0 52 9e 38 3e 13 51 16 3e 4f 4e 9c 3e 5b e3 9e 3e
       0.18029144 0.14679365 0.30528495 0.31032833
0000c0 e2 d1 30 3e 0e 1e 86 3e d1 6f a0 3d cd 6c 67 3e
       0.17267564 0.26194805 0.07833827 0.22600098
0000d0 96 87 17 3e 43 c8 50 3e 4b d7 ab 3e bf 5d a9 3e
       0.14797816 0.20388894 0.33562693 0.33079335
0000e0 eb 95 0d 3e 77 3c 8c 3e 41 21 2a 3e a9 f7 f1 3d
       0.1382672 0.2738988 0.16614248 0.118148156
0000f0 05 12 4f 3d c2 5a 46 3e 67 ec b6 3e 77 f4 35 3e
       0.050554294 0.19370559 0.35727236 0.17769037
000100 86 52 a0 3d 2e 85 c3 3e 72 6f 90 3e 81 f4 29 3d
       0.0782824 0.38187546 0.28210026 0.041492943
000110 1a f9 a1 3d 9a cc 09 3e bc bf 33 3d 23 16 80 3e
       0.079088405 0.13456956 0.043884024 0.2501689
000120 40 7e 02 3e 41 d4 a8 3e ae 16 b2 3e 5c 70 88 3e
       0.12743473 0.32974437 0.34782928 0.26648223
000130 95 04 0c 3e 2c dc af 3e 24 43 7d 3e 1b 7b 9c 3e
       0.13673623 0.34347665 0.24732643 0.30562672
000140 bf 18 31 3e c4 82 35 3e b0 85 44 3e 41 bc 93 3e
       0.17294596 0.17725664 0.19191623 0.28854564
000150 c8 25 56 3e db 47 0d 3e cf 2d 40 3e 47 e2 0c 3e
       0.2091285 0.13796942 0.18767475 0.13758193
000160 10 ed 92 3e 52 ac f9 3c 8f 90 9e 3e 82 51 92 3e
       0.2869649 0.030477677 0.30969664 0.2857781
000170 71 e1 69 3e 2e a8 03 3e f7 ae e4 3d a6 ef 0c 3e
       0.22839905 0.12857124 0.111661844 0.13763294
000180 bd 05 b9 3e 3f c9 ac 3e 53 9e 8a 3e 3f e9 11 3e
       0.3613719 0.3374729 0.27073917 0.14249133
000190 c9 6c 56 3e f0 59 9e 3e 9c 6c 25 3e 5f 25 21 bd
       0.20939936 0.30927992 0.16154712 -0.03934228
0001a0 87 1c 6a 3e c3 29 9c 3e 00 9b f0 3d 0e b6 aa 3e
       0.22862445 0.30500612 0.11748314 0.33342022
0001b0 e9 43 ee 3e 24 b5 0c 3d 84 32 84 bc 94 ec 4c 3e
       0.46536186 0.034352437 -0.016137369 0.20012122
0001c0 84 e4 88 3e a8 00 62 3e a6 c3 96 3d 42 33 81 3e
       0.26736844 0.22070563 0.07361536 0.2523442
0001d0 01 be 20 3e 64 47 65 3e c9 9d 80 3e 04 df bd 3e
       0.1569748 0.22390515 0.2512038 0.3708421
0001e0 8a 07 6f bd 27 59 35 3e f8 1c a6 3e 63 46 48 3e
       -0.0583568 0.1770979 0.32443976 0.195581
0001f0 7d a1 ba 3d 82 3b 95 3e 38 a7 4c 3e bf 23 02 3e
       0.09112833 0.29146963 0.19985664 0.12708949
000200 ad ea 94 3d 2e 6d b0 bd 6c 98 c1 bc 5e 15 34 3d
       0.07271323 -0.086145744 -0.02363225 0.04396569
000210 d7 e1 68 bd 18 5d d3 3c ac 0a 8e bc 89 e8 a2 3d
       -0.056856003 0.025801226 -0.017339073 0.07954509
000220 92 90 32 3d ba df 59 3d bd c8 1c bd 9a 7f 42 3d
       0.043594904 0.053191878 -0.038277376 0.04748497
000230 20 5b e7 3c 48 54 e3 3c 1e b4 19 bd 8c 82 a6 bc
       0.028241694 0.02775015 -0.03752529 -0.020325921
000240 70 70 6f 3c 2a f5 74 3d fb 35 a7 bd e0 c5 a0 bd
       0.0146142095 0.05980412 -0.08164593 -0.07850242
000250 f0 37 56 3c 4a 65 36 3d a6 69 6e 3d 78 76 a2 3c
       0.01307486 0.04453019 0.058206223 0.01983188
000260 ca b3 da bc e6 82 7a 3d a2 ff 31 3d b0 03 83 3b
       -0.026697058 0.06115999 0.04345668 0.0039982423
000270 82 f7 5c 3d ee 07 30 3d f9 f3 46 bd d5 8b 1b bd
       0.05394698 0.042976312 -0.048572514 -0.03797515
000280 72 6b 8b bd 0b ca a2 3d 20 de 64 3c d7 e0 7e bd
       -0.06807603 0.07948693 0.013968974 -0.062226143
000290 a0 66 2e bc 00 70 27 b8 20 6d 76 bd 85 a4 88 3d
       -0.010644585 -3.992021e-05 -0.060162663 0.066720046
0002a0 f2 5d 58 3d 41 fd 5b bd 2b 96 82 3d 16 4b a4 bd
       0.05282397 -0.05370832 0.063762985 -0.08022134
0002b0 81 38 af 3d a8 61 67 bc c0 75 0e 3c 42 21 4e bd
       0.08555699 -0.014122404 0.008695066 -0.050324686
0002c0 d2 c1 77 bd eb 29 b4 bd 0c 74 10 3d 66 f5 49 3d
       -0.060487576 -0.08797058 0.03526692 0.049306296
0002d0 e4 7d a7 3c 50 2c 76 bc 46 b0 99 bd e3 53 a7 bd
       0.020445772 -0.015025213 -0.075043246 -0.08170297
0002e0 ce d2 83 bd ce a3 5d 3d 00 01 a6 bb 05 56 27 bd
       -0.06436692 0.054111294 -0.005066037 -0.04085352
0002f0 cb 19 16 bd 13 5c 99 3d e0 bc 9d 3c 04 00 99 bc
       -0.03664569 0.07488265 0.019255102 -0.018676765
000300 ca 5b 29 3d ba 97 6d 3d 7a 8f 1d 3d 9e 50 33 3d
       0.041347302 0.058006026 0.038466908 0.043778054
000310 e6 82 89 bd 9a 7e 64 3d fe 5d 1c 3d c3 2c 94 3d
       -0.0671442 0.0557848 0.038175575 0.072351
000320 e8 f0 7f bc 2f 5d 82 3d ed a6 b2 bd 39 83 8b 3d
       -0.015621401 0.063654296 -0.08723245 0.06812138
000330 70 39 c0 bb b8 8b 07 bd f4 64 67 bd cc ca a7 bc
       -0.005866222 -0.03309223 -0.05649276 -0.020482443
000340 ac 50 ec 3c d0 48 c0 3c 8c 93 c5 bc 62 07 5c 3d
       0.028847061 0.02347222 -0.024118207 0.05371798
000350 d0 a6 a5 3c b7 35 82 bd 1d 56 88 3d cd 82 90 3d
       0.020221144 -0.063579015 0.0665705 0.07056198
000360 20 3a 32 3b f8 dd 71 bc ec 6a 08 bd 40 08 36 bc
       0.002719529 -0.014762394 -0.033305094 -0.011110365
000370 04 06 92 3c 10 8f 52 3c 84 bb c2 3c 26 ee 28 3d
       0.017825134 0.012851492 0.023771055 0.04124274
000380 8c 03 9a 3c 60 1c 17 bd d7 24 47 bd fb 1c 31 bd
       0.01880052 -0.036892295 -0.048619118 -0.04324053
000390 32 eb d7 bc 6a fe 79 3d b4 2f a1 bd 64 f6 d2 3c
       -0.026357267 0.061033644 -0.07870427 0.025752254
0003a0 3e 16 97 bd a1 ea 9d 3d 68 8d b8 bc c8 a1 b2 bc
       -0.07377289 0.077107675 -0.022528365 -0.021805659
0003b0 f7 7d 8c bd e8 64 ed 3c 98 25 95 bd 1b 15 ae 3d
       -0.068599634 0.02897878 -0.07282561 0.08500119
0003c0 3a f2 7e 3d 80 1a 93 bb 5c 1b ce bc af b3 00 bd
       0.062242724 -0.004489243 -0.02515953 -0.03142136
0003d0 f0 62 c1 bc 5a c0 26 3d b1 12 81 bd 9b 47 74 bd
       -0.023606747 0.040710784 -0.06302393 -0.0596386
0003e0 e0 7d a8 bb 3c b7 12 bd 60 93 aa 3c d5 84 9d 3d
       -0.0051419586 -0.035819277 0.020822227 0.07691351
0003f0 52 c7 69 3d 5c f8 96 bc fe 74 2d bd 00 58 7c 38
       0.057074852 -0.018428974 -0.0423479 6.016344e-05

fc.weight f4 [45, 128]
000000 4d c6 e5 bf 30 71 46 bf a5 69 cd 3f fc 6f 52 bf
       -1.7951142 -0.7751646 1.6047865 -0.82202125
000010 56 06 b7 bd 17 a1 cc 3f 7f 32 ff 3e 21 30 8d 3f
       -0.08936755 1.5986661 0.49843213 1.1030313
000020 63 4b be bf 1c 74 28 bf 0b 6d 02 3f 15 24 a3 3f
       -1.4866756 -0.6580217 0.50947636 1.2745386
000030 b4 76 ad be 10 59 8d bf 8c 95 9b 3f 86 50 8d bf
       -0.33879626 -1.1042805 1.2155013 -1.1040199
000040 19 07 8f bf cc 4d 8d bf 2a 24 51 40 20 e5 dc bf
       -1.1174041 -1.1039367 3.2678323 -1.7257423
000050 e5 a3 21 3f cb 98 04 40 b9 22 1a 3f e3 c8 c4 bf
       0.6314071 2.0718257 0.6020923 -1.5373806
000060 ca 9a 86 3f a6 1f 09 c0 ea 58 20 bf bb e8 ec 3e
       1.0515988 -2.1425567 -0.6263567 0.4627131
000070 6b bb 5b bf 29 30 bf 3e dc 15 03 c0 f3 d2 1e 40
       -0.8583285 0.3734143 -2.0482092 2.4816253
000080 73 8b a0 3b 82 89 d1 3f 9e ca bb be 2b 85 23 40
       0.004899436 1.6370089 -0.36678022 2.555003
000090 07 7c 3d 40 c8 38 89 bb 2b 93 c6 3e f3 50 10 3f
       2.960695 -0.004187677 0.38784155 0.5637352
0000a0 56 0e 36 3f cc 86 fe be fb 81 bb 3e 1c b3 00 bf
       0.71115625 -0.49712217 0.36622605 -0.502733
0000b0 33 60 1a 3f 31 5e 38 c0 23 23 a8 bf 5d 89 de be
       0.6030304 -2.880749 -1.3135723 -0.43464175
0000c0 92 bf 22 be 6c 1e 7e 3f 34 1e 96 bd 16 02 7c 3f
       -0.15893391 0.9926517 -0.073299795 0.9844068
0000d0 91 4e 14 3f 26 5c 16 bf f5 51 83 3f 72 e9 d3 3f
       0.5793238 -0.5873436 1.0259386 1.6555617
0000e0 bd df cd 3d 6a 6f 3b 3e af 67 60 bf f2 3e 38 be
       0.1005244 0.1830422 -0.8765821 -0.17992762
0000f0 f2 8e aa bf da 98 03 40 14 fb 52 bf f1 ad 11 40
       -1.3324873 2.0562043 -0.82414365 2.2762415
000100 b4 2d d7 bf 3f db 7e 3f 5d d9 1b bf fc 4b 69 3f
       -1.6810822 0.99553293 -0.60878545 0.9113157
000110 a2 14 b9 3f 6f 4f be 3f 71 56 a1 bf 19 c9 0d bf
       1.4459422 1.4867991 -1.2604505 -0.55384976
000120 14 b5 e0 3f 34 1f b5 be 32 60 8b 3f d6 dc 4e 40
       1.7555261 -0.3537537 1.0888731 3.2322288
000130 f1 5e b5 3f e6 7e 2a bf de f4 e8 bf 1d 87 f6 bf
       1.4169599 -0.6659988 -1.8199728 -1.9259983
000140 95 00 5b 3f 9f 89 cb 3f 2d a2 84 bf c7 82 99 3d
       0.85547763 1.5901374 -1.0361992 0.07495647
000150 e3 91 54 be 6b a8 06 bf 2c d0 8f bf 8f da 63 3f
       -0.20758776 -0.52600735 -1.1235404 0.8900537
000160 01 5f a0 3e 45 46 c5 3d 29 23 9f 3f 04 fa c8 bf
       0.31322482 0.096325435 1.2432605 -1.5701299
000170 2b 29 b5 bf 4f ea 20 bf df 5c dc bf ee 29 16 c0
       -1.4153188 -0.62857527 -1.7215842 -2.3463092
000180 a5 21 00 40 2a 6a bb 3f 22 3c 25 bf fb cf 18 3f
       2.0020535 1.4641774 -0.6454488 0.59692353
000190 d0 2f ea bf 91 58 96 be f6 34 05 3f 61 9f d6 bf
       -1.8295841 -0.29364446 0.52033937 -1.6767389
0001a0 08 05 66 3f 7a cd 87 3f a5 7f b9 bf c7 da 5d be
       0.8985143 1.0609581 -1.4492079 -0.21665488
0001b0 69 4f 13 40 99 32 84 3f 3e c6 55 40 0a 6f ca bf
       2.3017218 1.0327941 3.3402247 -1.5815136
0001c0 e3 55 1c 40 c2 ed 1f 40 8f 13 c2 3f 18 07 0b 3f
       2.442742 2.4988866 1.5162219 0.543077
0001d0 3b d8 ce 3f ac 6c b1 3e 57 77 e8 3f fa e3 8d bf
       1.6159738 0.34653223 1.816142 -1.1085198
0001e0 6f 38 71 be 75 2c 0b c0 3b 31 62 be fd bd 05 40
       -0.23556684 -2.1745884 -0.22089092 2.089721
0001f0 77 18 43 3e 48 9a d1 bf 9e 2f 0b 3f e6 61 6c bf
       0.19052301 -1.6375208 0.54369533 -0.9233688
000200 98 e2 08 3f 3e bc 12 bf f4 11 f4 3f 47 de ce 3e
       0.53470755 -0.57318485 1.9067979 0.4040396
000210 77 a0 db bc 8d d1 55 bf 4e 3a a1 3f 2d fe 00 bf
       -0.026809914 -0.83522874 1.2595918 -0.5038784
000220 d0 35 32 3e 36 2f e2 3e f6 15 e1 be 34 ce b3 be
       0.1740334 0.44176644 -0.43962067 -0.35118258
000230 63 fd fb bf 6c 1e 9f bd 3f c7 76 3f a1 96 c3 be
       -1.9686702 -0.077694744 0.96397775 -0.38200858
000240 d8 cd e9 bd a8 06 84 bf 96 01 04 40 81 60 84 3f
       -0.11416215 -1.0314531 2.0625968 1.0341951
000250 e1 3a 55 bf e7 5a 50 3f 79 5e b3 3e ad d1 a2 3e
       -0.8329297 0.81388706 0.35033014 0.31800595
000260 e5 52 13 3f 93 ec 14 bf 08 44 9d 3e f8 78 7f 3f
       0.5754836 -0.58173484 0.30715966 0.9979396
000270 05 45 b4 3f 15 ce f3 3f ce 89 d7 bf 4b 6d ad 3f
       1.4083563 1.9047266 -1.683893 1.3548979
000280 e3 d8 0b 40 d7 c0 be be f7 da db be 29 17 35 40
       2.1851127 -0.372565 -0.42940494 2.8295386
000290 f5 24 ab bf 4e 36 4c bf 22 47 37 c0 5d b1 2c c0
       -1.3370653 -0.7977036 -2.8637166 -2.6983254
0002a0 cc 63 1a be 5b 93 6b 3f 3d 4b 55 be 2d 99 f2 3f
       -0.15077132 0.9202172 -0.20829482 1.8952996
0002b0 77 77 fc 3f d1 15 f6 3d ee 96 42 bf 4a ed 12 40
       1.9723958 0.1201588 -0.7601155 2.295733
0002c0 0b 57 40 bd 1f f4 15 bf ef d7 b7 3f 69 ef 07 c0
       -0.04695801 -0.58575624 1.4362773 -2.1239874
0002d0 ba 1d 2d bf 2c 43 80 bf 47 9e 89 3e db c4 2f 3d
       -0.67623484 -1.0020499 0.2687857 0.042912345
0002e0 1d f4 d8 3f 97 8d 93 be 62 33 0a c0 d8 3e 2c 40
       1.6949497 -0.28818962 -2.1593862 2.6913357
0002f0 0d c8 48 bd a6 3e 2a 40 f7 d8 2f 3e 7b 46 fb 3f
       -0.04901891 2.6600738 0.1717261 1.9630884
000300 28 51 06 40 33 28 df 3f 94 a2 16 3f c8 a2 ab bd
       2.0987034 1.7434143 0.58841825 -0.083806574
000310 1c 84 38 c0 64 31 9e 3f ca 8b 25 bf c9 1f 8c bf
       -2.8830633 1.2358823 -0.64666426 -1.09472
000320 6e 81 0e bf ed b3 54 be 22 e8 33 c0 40 0c e7 bf
       -0.55666244 -0.20771761 -2.8110433 -1.8050613
000330 fa 45 9a 3f c4 47 b6 bf f0 63 73 bd f2 93 e7 3d
       1.2052605 -1.4240651 -0.05942148 0.11307515
000340 90 95 9f 3f af 22 5b bf 13 66 7a 3f 5b 9a c6 3e
       1.2467518 -0.855998 0.97812 0.3878964
000350 59 ac 35 40 c5 8c 80 3e be b2 2e c0 4b bc 57 3f
       2.8386443 0.251074 -2.7296596 0.8427169
000360 df b2 08 3f e3 2c 02 3e 89 46 73 3e 5a 8e 35 3f
       0.53397936 0.12712435 0.23757376 0.70920336
000370 81 3f 42 3f 0a 68 66 be 80 4c 5f 3f 52 70 22 3f
       0.7587815 -0.22500625 0.87226105 0.6345264
000380 4c 6c 2a 3f e4 60 05 40 ec ea a7 bf cd 7e 80 bf
       0.665715 2.0840387 -1.3118567 -1.0038697
000390 17 26 e1 3e 20 03 96 3e 0b 61 ca bf d2 7f 0e bf
       0.43974373 0.2929926 -1.5810865 -0.5566379
0003a0 c7 44 08 3f a6 96 ea 3f 56 b3 fc bf ae 14 3c be
       0.53229946 1.8327224 -1.9742229 -0.18367264
0003b0 a0 a3 fc 3f d4 f3 db 3f 4b 2b e6 3e d8 53 08 c0
       1.9737434 1.7183785 0.44954905 -2.1301174
0003c0 bd f9 54 3d 75 b6 4d be 99 86 b8 bf e4 29 a7 bf
       0.05199598 -0.20089133 -1.4416076 -1.3059659
0003d0 8b 90 89 3f e2 89 ff 3f 14 47 62 3d e1 11 7f 3f
       1.0747236 1.9963953 0.055243567 0.99636656
0003e0 68 2a 26 bf 44 08 02 3f 8b 63 15 bf 94 68 cf be
       -0.64908457 0.5079386 -0.58355016 -0.40509474
0003f0 7b d8 1f 3f 43 e6 0b bf b5 ba 80 3f 9a 14 14 3f
       0.624397 -0.54648226 1.0056978 0.57843935

fc.bias f4 [45]
000000 2a 41 3c bf ae 31 2e bf 98 fe 1d bf bf 1e 52 bf
       -0.7353693 -0.68044555 -0.61716604 -0.82078165
000010 43 13 40 bf 46 03 42 bf d6 31 6b bf df f4 8a bf
       -0.7502939 -0.75786245 -0.9187292 -1.0855979
000020 12 4f 56 bf 18 de 23 bf aa e5 6b bf 5a c9 21 bf
       -0.837144 -0.64010763 -0.92147315 -0.63197863
000030 3e 2a 5c bf a4 b7 1c bf 3c 9d e1 be 52 22 3c bf
       -0.86001956 -0.61217713 -0.44065273 -0.7348987
000040 cb 5c 80 bf 36 4b e4 be cd d6 7a bf fd ad 21 bf
       -1.0028318 -0.4458863 -0.9798401 -0.6315611
000050 c8 0c 2b bf a4 e4 22 bf f7 e6 fa be 11 a1 78 bf
       -0.6681638 -0.6363013 -0.49004337 -0.9712077
000060 4a 5d 07 bf f5 4d 20 bf 54 6b 4a bf 58 0d e5 be
       -0.5287672 -0.62618953 -0.7907002 -0.44736743
000070 95 d7 3c bf eb 3f 29 bf f7 86 22 bf 9e 6b 53 bf
       -0.7376645 -0.66113156 -0.6348719 -0.82586086
000080 08 3f 81 bf 5f 53 73 be f0 48 7e bf 57 6b 81 bf
       -1.0097361 -0.23762272 -0.99330044 -1.0110883
000090 af 25 4c bf 98 f1 59 bf b2 d4 35 bf d6 2f 27 bf
       -0.79745 -0.8513427 -0.7102767 -0.65307367
0000a0 f6 aa 6c bf 57 24 b5 be ad a7 45 bf 79 ce 3f bf
       -0.92448366 -0.35379288 -0.7720898 -0.7492443
0000b0 46 c3 7f bf
       -0.9990734
